app/src/main/assets/Ten_Move_model.tflite (tflite, 73944 bytes, 5 tensors)

Conv2D_1_bias f4 [32]
000000 00 00 00 00 00 00 00 00 00 00 00 00 00 00 00 00
       0.0 0.0 0.0 0.0
000010 00 00 00 00 00 00 00 00 00 00 00 00 00 00 00 00
       0.0 0.0 0.0 0.0
000020 00 00 00 00 00 00 00 00 00 00 00 00 00 00 00 00
       0.0 0.0 0.0 0.0
000030 00 00 00 00 00 00 00 00 00 00 00 00 00 00 00 00
       0.0 0.0 0.0 0.0
000040 00 00 00 00 00 00 00 00 00 00 00 00 00 00 00 00
       0.0 0.0 0.0 0.0
000050 00 00 00 00 00 00 00 00 00 00 00 00 00 00 00 00
       0.0 0.0 0.0 0.0
000060 00 00 00 00 00 00 00 00 00 00 00 00 00 00 00 00
       0.0 0.0 0.0 0.0
000070 00 00 00 00 00 00 00 00 00 00 00 00 00 00 00 00
       0.0 0.0 0.0 0.0

MatMul_bias f4 [10]
000000 98 08 d8 be 33 f7 87 3f 77 83 62 bf 77 b7 a0 bd
       -0.42194057 1.0622314 -0.8848185 -0.07847493
000010 42 12 7c 3f fe 97 d2 bc 66 30 70 bf 02 b5 f4 bf
       0.9846536 -0.025707241 -0.9382385 -1.9117739
000020 45 f6 19 bf 77 c9 d6 be
       -0.601414 -0.4195058

Variable f4 [32, 1, 10, 1]
000000 b4 f5 ca 3d 30 99 b0 3d 02 1c 95 3d 26 2c 9c 3d
       0.099101454 0.08622968 0.07280733 0.07625608
000010 f3 17 ac 3d b8 41 b1 3d 71 fd e2 3d 26 41 cb 3d
       0.084030055 0.08655113 0.11083496 0.099245355
000020 3d a2 db 3d 66 a4 c7 3d 27 6d 03 be ae d5 0a be
       0.10724304 0.097481534 -0.12834607 -0.13558075
000030 43 a9 10 be c9 0a f3 bd c1 dd 14 bd d9 a4 03 3d
       -0.14127068 -0.118672915 -0.036344294 0.032139633
000040 47 04 bf 3d ee 30 78 3d 8a cc e0 3d b2 ff 91 3d
       0.09326988 0.060593538 0.10976513 0.07128848
000050 2d b8 d2 3d 63 8d de 3d d8 42 b5 3d 14 a9 b5 3d
       0.10289035 0.10866811 0.0885064 0.0887014
000060 69 8d a6 3d 8b 1d b5 3d aa f2 04 3e 1b da fb 3d
       0.081324406 0.088435255 0.12983194 0.1229746
000070 36 4f 06 3e 3e 3c e1 3d fa ad 07 be 69 88 16 be
       0.13116154 0.109978184 -0.1324996 -0.14700474
000080 1d 4a 1c be bc e0 e5 bd 90 09 a0 bd d7 ae 74 bd
       -0.15262647 -0.11224505 -0.07814324 -0.059737053
000090 04 c2 c9 bc 9c 65 ba b8 da cd 99 3d d0 ca c8 3d
       -0.024628647 -8.888097e-05 0.07509966 0.098043084
0000a0 59 f4 f7 3d e6 5c af 3d 13 76 c3 3d 15 43 93 3d
       0.121071525 0.08562641 0.09544005 0.07190529
0000b0 ef ee af 3d e6 c9 cc 3d ca 0d db 3d 83 ee fb 3d
       0.08590495 0.099994466 0.106959894 0.12301352
0000c0 86 5f 06 3e 3d 83 98 3d 50 4f c2 bd 29 52 bb bd
       0.13122377 0.07446907 -0.09487784 -0.0914653
0000d0 85 98 ab bd 8d f3 75 bd 6e a3 fb bc d0 9b 41 3c
       -0.083787 -0.06004672 -0.030717578 0.011816934
0000e0 e7 6f 83 3d 1b ac 9d 3d c6 f2 ef 3d 28 dd df 3d
       0.06417828 0.07698842 0.11716227 0.10930854
0000f0 0d 62 b5 3d 1c 9e ad 3d aa 60 93 3d a7 af 90 3d
       0.08856592 0.084774226 0.071961716 0.07064753
000100 79 ef 89 3d 6f e6 a2 3d eb 16 bb 3d a7 c0 c5 3d
       0.06735129 0.07954108 0.09135231 0.09655886
000110 86 13 ca 3d 78 78 ab 3d d0 86 3d bd 9a 13 9c bd
       0.09867005 0.08372587 -0.046271145 -0.07620926
000120 68 38 93 bd c3 a0 b0 bd 71 d0 2f bd 97 b3 86 bd
       -0.07188493 -0.08624413 -0.042923395 -0.06577223
000130 6b f2 9d bd f3 b8 9e bd 34 30 b4 bd 93 eb 99 bd
       -0.07712253 -0.0775012 -0.087982565 -0.07515635
000140 16 bc 01 3e 8f a6 0c 3e 63 58 8e 3d e6 33 99 3b
       0.12669405 0.13735412 0.06950452 0.004675376
000150 df a1 a9 bd b5 ae f7 bd 8b 7f 0a be 2a 74 a7 bd
       -0.082828276 -0.120938696 -0.13525216 -0.081764534
000160 30 bd 91 bc 95 6c 70 3d 5f fe 87 bd d7 d9 d9 bd
       -0.017790407 0.058697302 -0.06640314 -0.10637253
000170 0d db f0 bd e7 3d a7 bd bf 9a 96 bd 12 7b d5 bd
       -0.117605306 -0.08166104 -0.07353734 -0.104238644
000180 aa 7a d0 bd e8 10 f9 bd 3a ca cf bd fe 66 7e bd
       -0.10179646 -0.12161428 -0.101459935 -0.06210994
000190 76 b3 b1 bd d2 f1 05 be 94 ba 04 be de 71 e7 bd
       -0.086768076 -0.13080528 -0.12961799 -0.11301015
0001a0 47 36 96 bd 5c df 86 bd b3 e3 90 bd 91 23 ce bd
       -0.07334571 -0.06585571 -0.0707468 -0.100653775
0001b0 ae 23 ac bd 8a 48 8e bd 7d d9 cc 3d 38 df b9 3d
       -0.08405243 -0.069474295 0.1000242 0.09075779
0001c0 48 ce 83 3d 8b 30 af 3d 1d 08 b2 3d 35 b2 9b 3d
       0.064358294 0.08554181 0.08692954 0.0760235
0001d0 02 65 bd 3d 16 57 c8 3d 11 1e ac 3d ab 94 8b 3d
       0.09247781 0.09782235 0.08404172 0.068154655
0001e0 80 d3 18 3e 35 38 07 3e ed 41 de 3d b0 db 00 3d
       0.14924431 0.13205035 0.10852418 0.03145951
0001f0 e6 cb ec bc ef 37 67 bd 64 54 96 bd c7 30 d6 bd
       -0.02890582 -0.056449827 -0.07340315 -0.10458522
000200 ed c7 e0 bd 44 7b 94 bd 48 c3 ac bd 24 f0 c4 bd
       -0.10975633 -0.072500736 -0.084356844 -0.09616116
000210 5c 5d c5 bd d6 2d c9 bd 5d 0f b7 bd 0f 16 b5 bd
       -0.096369475 -0.09823196 -0.08938477 -0.08842098
000220 11 33 94 bd 08 ff ab bd 58 e9 9f bd 24 8b 82 bd
       -0.07236303 -0.08398253 -0.07808179 -0.06374195
000230 19 41 be 3d b7 17 96 3d e1 87 9f 3d fb 5f 5b 3d
       0.0928976 0.07328742 0.07789589 0.05355833
000240 91 87 70 3d 01 7d 96 3d 0c 3a d0 3d 2b 0e c5 3d
       0.058723036 0.07348061 0.101673216 0.09621843
000250 f2 17 bf 3d 79 42 9f 3d 4c df c1 bd d6 84 e6 bd
       0.09330739 0.077763505 -0.094664186 -0.11255805
000260 ec b9 96 bd 64 e6 7d bd df 47 8e bd 0d 59 ce bd
       -0.073596805 -0.061987296 -0.06947302 -0.10075579
000270 34 c8 cf bd 42 59 b1 bd de 58 a6 bd d2 3e 2f bd
       -0.101456076 -0.08659603 -0.08122419 -0.04278452
000280 d9 1f 93 bd a7 08 a4 bd 9e 5e c7 bd 13 25 91 bd
       -0.07183809 -0.08009463 -0.09734844 -0.070871495
000290 cb 9d 15 bd 1d a8 6b bc dd a8 44 3d 1f 16 a8 3d
       -0.036527436 -0.014383343 0.048012603 0.08207344
0002a0 13 21 e8 3d 6f 00 da 3d d0 1b 60 bd 2f bc b5 bd
       0.113344334 0.10644614 -0.054714024 -0.08873784
0002b0 61 e4 e6 bd e3 20 c9 bd 4c 55 99 bd 2a b6 bc bd
       -0.112740286 -0.09820726 -0.07486972 -0.092144325
0002c0 bf 63 96 bd bf b7 a7 bd 2f 2d af bd 9e 39 83 bd
       -0.07343244 -0.08189344 -0.0855354 -0.06407474
0002d0 bb 77 fa 3d 11 25 09 3e 00 1e 08 3e de 43 00 3e
       0.12229868 0.13393046 0.13292694 0.1252589
0002e0 e5 82 99 3d 97 75 e2 3d 6a 1f 0a 3e db 92 1a 3e
       0.07495669 0.11057585 0.13488546 0.15095083
0002f0 a1 5f 19 3e a3 60 27 3e 6d 0a cf 3d e5 cb ac 3d
       0.14977886 0.16345458 0.101094104 0.08437327
000300 ac 1e b3 3d 87 07 c9 3d d1 1b 84 3d 75 b3 9c 3d
       0.087460846 0.09815889 0.06450618 0.07651416
000310 96 80 9c 3d 53 ba 04 3e cc 90 fd 3d 65 a6 d8 3d
       0.07641713 0.12961702 0.123811334 0.10578612
000320 7d 7e 8c bd 26 07 a1 bd e4 28 eb bd 5f c9 a2 bd
       -0.06860063 -0.078626916 -0.11482409 -0.07948565
000330 0d a6 7f bd 4c ba a4 bd f1 7f 8e bd 1c 63 c7 bd
       -0.062414218 -0.08043346 -0.06957997 -0.097357005
000340 a0 d2 89 bd 0f c3 6c bd e8 b5 aa bd d2 7e ce bd
       -0.06729627 -0.05780321 -0.08335477 -0.10082783
000350 45 99 ca bd 5f 1c ab bd 8a 06 8b bd 9a c6 a7 bd
       -0.09892515 -0.08355021 -0.067883566 -0.08192177
000360 42 06 92 bd 0a 80 b5 bd 94 3b 91 bd 8a 42 48 bd
       -0.071301 -0.08862312 -0.07091442 -0.04889158
000370 ca 20 ce bd d7 cb d9 bd da 60 f9 bd fb 90 c5 bd
       -0.10064848 -0.106345825 -0.12176676 -0.096467935
000380 34 56 96 bd c3 cb c2 bd 8a 27 af bd 0b 38 9b bd
       -0.07340661 -0.09511521 -0.08552463 -0.07579049
000390 77 10 cb bd f5 21 54 bd 8d 02 c1 3d c5 d8 e7 3d
       -0.0991525 -0.051790196 0.09424315 0.113206424
0003a0 a9 97 9e 3d e8 8d d1 3d 71 ec 80 3d 37 d4 c9 3d
       0.07743771 0.102321446 0.062950976 0.0985493
0003b0 d6 d5 f2 3d 6a 5b 09 3e 0e e7 ef 3d c4 b0 ce 3d
       0.11857192 0.13413778 0.11713992 0.10092309
0003c0 35 35 c0 3d 97 a9 ad 3d 08 a0 a3 3d 32 a9 7e 3d
       0.093851484 0.08479612 0.07989508 0.062173076
0003d0 1f 2e a6 3d f0 be 9e 3d 20 39 d0 3d ad e0 e7 3d
       0.08114266 0.07751262 0.10167146 0.113221504
0003e0 83 6d e4 3d c5 ca 8b 3d 13 fd d7 3d 8f df 93 3d
       0.111537 0.068257846 0.10546317 0.07220375
0003f0 d4 8e 99 3d 24 5e 73 3d a7 28 a2 3d c1 ee 97 3d
       0.074979454 0.05941595 0.0791791 0.074185856

Variable_1 f4 [32, 1, 5, 32]
000000 66 b9 22 3a a5 b6 23 bd db e9 99 bc 4d b6 84 3b
       0.0006207436 -0.039969105 -0.018788269 0.0040500523
000010 02 ed e4 ba 04 61 51 bd 6e 26 73 bc df fa 77 bb
       -0.0017465653 -0.051117912 -0.014840705 -0.003783874
000020 68 00 2f bc 00 42 81 3c 2f dc 7a bb 44 8c 4b 39
       -0.010681249 0.015778542 -0.0038278212 0.00019411842
000030 8c df af bb d7 ec 00 3c 5e a4 19 3c 1d 61 59 3c
       -0.005367225 0.007868967 0.009377567 0.0132677825
000040 dd e8 0e bd c0 c7 8b 3b eb 14 1e bc a7 e2 83 3c
       -0.034890044 0.0042657554 -0.009648542 0.016099287
000050 8a ff 52 3c c3 68 a3 3b 0f ae c4 3c fb c8 7a bc
       0.012878308 0.004986854 0.024008779 -0.015306707
000060 ca ae 1b bb 0a 41 36 3b ff 79 e0 bb 94 ee 39 bd
       -0.0023755305 0.0027809762 -0.0068504806 -0.04539354
000070 63 b1 64 bc 96 78 f7 bb 31 e8 2e bc e3 c1 c0 3a
       -0.013958308 -0.0075522168 -0.010675476 0.001470622
000080 ba 56 a0 3c 6e be 25 bc c2 20 d4 3c 6b 45 5c bc
       0.019572604 -0.010116203 0.025894526 -0.013444285
000090 32 3c 03 3c a0 09 17 bc eb a8 e2 3c 71 1f 17 3b
       0.008009957 -0.009218603 0.027668437 0.0023059512
0000a0 e7 60 51 bd 0e 37 93 3c 90 9b 58 3c fb af 09 3d
       -0.051117804 0.017970588 0.013220683 0.033615094
0000b0 18 54 30 bd 72 4e 95 3c cd 89 1e 3d bb d9 b3 3c
       -0.043048948 0.018225882 0.038705636 0.021954408
0000c0 6d 1c d5 bc 24 ec 2a bb 2e 14 fe 3c 0f f7 27 3d
       -0.026014531 -0.0026080692 0.031015482 0.041007098
0000d0 72 3b 4c 3c ab 1f e8 3c 3d c4 de 3b a9 dd a3 3c
       0.012465345 0.028335413 0.006798296 0.020003157
0000e0 5e fd da 3c 61 09 2a 3d d8 8b 0b 3c 6b b3 a3 bc
       0.026732143 0.04151285 0.008517228 -0.019983014
0000f0 df 1a c0 3c ea e6 e4 3c 72 ab 63 bc d2 ab 43 3c
       0.023450313 0.02794214 -0.013895856 0.011942821
000100 38 c5 63 3c 1a 2f 52 bd 90 a1 fc 3c 5a 70 64 3c
       0.013902001 -0.05131445 0.030838758 0.013942802
000110 95 86 51 3c ac 5e 4d bd 88 21 86 3c 7e eb 00 3d
       0.0127884345 -0.050139114 0.01637341 0.031474583
000120 61 56 22 3d c2 3c 2d 3c 13 c2 ae 3b a1 e7 36 3d
       0.03963316 0.010573568 0.005333194 0.044654492
000130 2b 13 f3 3c 66 7b c0 3c 39 9c 4d 3c 85 ec af 3c
       0.029672226 0.023496341 0.012549453 0.021475086
000140 a3 d8 6e bd 80 fe b0 3b 1f e7 12 3b 6e 23 7d 3c
       -0.05831207 0.0054014325 0.002241559 0.015450342
000150 4b c1 63 3c ec 3f ac 3c 85 31 80 3b 8a e6 73 3c
       0.013901065 0.021026574 0.003912153 0.014886508
000160 e6 50 95 bb 37 8c 49 3c ec a2 8a 3c 2a cf 57 bd
       -0.004556763 0.012301496 0.01692339 -0.0526878
000170 cf fb c4 3c 2d 60 64 3c 5c ac ed bc c1 7b c9 3c
       0.024045853 0.013938946 -0.029012851 0.024595143
000180 80 57 7d 3c 20 82 28 bd c8 fc 0a 3c c5 9f ec bc
       0.015462756 -0.041139722 0.008483119 -0.028884778
000190 3b dd df bc 7d 6e 26 bd 3f 87 1c 3c 59 70 1e 3c
       -0.02732717 -0.040632714 0.00955373 0.00967034
0001a0 e3 ca fb 3a 14 9a 69 3c 48 83 a3 3c 45 74 76 3c
       0.0019210245 0.0142579265 0.01996006 0.015042369
0001b0 89 c1 02 bd b1 1e 2c bb 1b 73 c7 3b cb f2 96 3c
       -0.03192285 -0.002626341 0.0060867197 0.01842632
0001c0 c0 43 36 bd af 89 02 3b 34 1f 67 b9 c4 2d 56 b9
       -0.044498205 0.0019918492 -0.00022041501 -0.0002042568
0001d0 3b 10 60 bb ab 57 48 bc 7f f3 05 bc 98 b5 6c 3c
       -0.0034189362 -0.012227933 -0.00817573 0.014447592
0001e0 89 a7 1a bb 11 09 6c bc 0c bf 12 bc cf c4 49 bd
       -0.0023598394 -0.0144064585 -0.008956682 -0.049259957
0001f0 fa 0f 90 bb 8e 02 32 ba 9b da 30 bd 23 bd 5b 3b
       -0.004396436 -0.0006790542 -0.04317723 0.0033529482
000200 6d ed e2 3c 72 33 94 bb 47 87 0d 3d 89 54 2c bc
       0.027701104 -0.0045227343 0.03455284 -0.010518202
000210 9d 0e c8 3c b1 b2 59 bc c4 5a 1b 3d 9b 89 bc 3c
       0.02442103 -0.013287232 0.037928358 0.023014834
000220 d7 c7 82 3c 33 3a ac 3c ff a3 07 3c 61 65 c3 3c
       0.015964432 0.021023845 0.008278846 0.023852052
000230 c2 8f 4c 3c a9 fe 04 3d 3b 0f ba 3c f8 48 47 ba
       0.012485446 0.032469425 0.02271234 -0.0007602121
000240 13 73 fe bc e8 a8 42 3c 68 5e 8c 3c 75 03 cc 3c
       -0.031060731 0.011881091 0.01713486 0.024903992
000250 cb b0 23 3c 39 a3 b3 3b f9 31 e9 3b 1a fa 97 3c
       0.009990881 0.005482104 0.007116553 0.018551875
000260 4f 43 ba 3c 6c f7 f5 3c 33 f5 cd 3c 30 d6 95 bc
       0.022737173 0.030025207 0.025141334 -0.01829061
000270 a5 45 7e 3c f9 8f 9a 3c 3a 69 e0 39 cb db 81 3c
       0.015519534 0.01886748 0.0004280301 0.015851876
000280 b9 56 d5 b9 81 d3 2c bc ad 8e 56 bb 7a 3b 77 bc
       -0.0004069114 -0.010548473 -0.003273885 -0.015089864
000290 77 36 0d 3b b0 e9 7c 3c 1d cc 45 bc 36 22 a4 bc
       0.0021547356 0.015436575 -0.01207259 -0.020035844
0002a0 b7 13 b6 bc 00 a1 9a 39 55 1a 06 bc 22 60 3b bc
       -0.022226198 0.00029493123 -0.008184989 -0.011436494
0002b0 2e cb 42 3c 67 22 9e bb 86 95 47 3c 82 34 de ba
       0.011889262 -0.0048258784 0.012181645 -0.0016952904
0002c0 22 fd 18 bc b5 0d ae bc f2 7f 1d bc c8 0c 62 ba
       -0.009337695 -0.02124677 -0.009613024 -0.00086231204
0002d0 7b c8 32 bc cc 4d c3 bb c8 c1 cf 3a 66 11 36 bc
       -0.010912056 -0.005960202 0.0015850598 -0.011112547
0002e0 49 e0 9b bc 0a 64 b6 bc 2e 77 af bc 28 48 35 3b
       -0.019027846 -0.0222645 -0.021419134 0.0027661417
0002f0 39 57 11 3b 6a 51 3a 3b 1d 17 14 bc 26 63 14 bc
       0.0022177233 0.0028429874 -0.009038714 -0.009056842
000300 d2 7b 78 3a 8a 01 22 bc a6 24 3c bc 9d de f2 ba
       0.00094789 -0.009888062 -0.011483347 -0.0018529479
000310 48 be 82 bb ed 1e bc bb 5b 32 ed bc c7 9a 36 bb
       -0.0039899684 -0.0057409913 -0.028954675 -0.002786325
000320 7a dc 8a 3a 99 e3 61 bc 4a 42 43 bc 7d 0e 6e bc
       0.0010594272 -0.013787174 -0.01191766 -0.014529821
000330 29 91 4c bc 98 6b 38 bc 0a ed af 3b 9e 0f 4c bc
       -0.012485781 -0.011256121 0.0053688334 -0.012454895
000340 c0 76 e3 3a c9 51 be bb 6f 8f 76 3b 92 bf 66 bb
       0.0017354116 -0.0058080894 0.0037622114 -0.00352094
000350 e4 b1 c6 3b c0 d5 1e bc c9 a7 a4 3b 49 d7 ff bb
       0.0060636867 -0.009694517 0.0050248844 -0.0078076464
000360 03 93 de bc 62 c0 d3 bb 60 80 af bb 6a 31 89 bc
       -0.02716971 -0.006462143 -0.0053558797 -0.016747195
000370 08 18 84 bb fe 24 f0 3b 8e ad 1d 3b fd 6b 1e bc
       -0.004031185 0.0073286286 0.0024059745 -0.009669301
000380 00 07 55 3b bf ee 23 3b cb b8 97 bc 33 0d e1 bb
       0.0032505393 0.002501413 -0.018520733 -0.0068680285
000390 91 bd 82 bc 04 90 77 bc 78 d3 80 bc 07 4a 04 3c
       -0.015959533 -0.01511002 -0.015725836 0.00807429
0003a0 b3 48 47 3a e4 fe 34 bc c0 1b 12 3c 83 69 d4 bb
       0.00076020806 -0.011047099 0.008917749 -0.0064823045
0003b0 46 9b 4c 3b 49 fc 5e bb 88 9a 67 bc 48 d4 a3 bc
       0.003122048 -0.0034024885 -0.014135964 -0.019998685
0003c0 b0 e3 7a bc 75 74 e4 bb 3e ae 35 bc 0f 98 3f 3b
       -0.015313074 -0.0069718906 -0.011088906 0.002923492
0003d0 b1 54 7c bc dd a2 b5 bc da f4 68 bc 0d 51 24 bb
       -0.015401051 -0.022172386 -0.014218533 -0.0025072724
0003e0 e7 fa 9d bb b9 89 85 bc 0c 6b c7 bb 64 5e 8f bb
       -0.0048211697 -0.016301023 -0.006085759 -0.004375266
0003f0 17 e7 03 ba 9e a1 25 bc 8a 2c 22 bc ca 1d 66 3c
       -0.00050316885 -0.010109333 -0.009898314 0.014045188

W3/transpose f4 [10, 1248]
000000 a9 95 72 3d a8 f9 17 bd 7a f5 29 3d ed 27 26 3d
       0.05922476 -0.037103325 0.04149387 0.04056542
000010 29 7f 3f 3d 49 9e b7 3d df a2 69 3d 8b 6f 5c 3b
       0.04675213 0.089657374 0.05704009 0.003363582
000020 df aa b6 3d 33 89 31 3d ff 55 cb 3c 93 5e 4f bd
       0.0891931 0.043343734 0.02482128 -0.050627302
000030 6b 6c 5a 3d 24 04 ee 3c 79 59 e3 3c 39 1d 78 3d
       0.05332605 0.029054709 0.027752625 0.060574744
000040 85 8e 74 3b fe 7e 18 bd ea 3f 03 3d 75 cb dd bc
       0.0037316394 -0.037230484 0.032043375 -0.027074555
000050 ad 64 b3 3a 1a 4e bb bb 44 56 89 3d 3a 51 92 3d
       0.001368662 -0.0057160975 0.06705907 0.07144399
000060 b8 00 77 bc a0 c6 98 3d e6 71 a9 3c 16 f0 7e 3d
       -0.015075855 0.0745976 0.020684194 0.062240683
000070 88 83 fb 3c 86 19 14 bc 7b 80 37 bd f2 52 cb bb
       0.030702367 -0.009039288 -0.044800263 -0.006204956
000080 c7 1b 3e bd d2 80 92 bd 7c 0b 18 bd 50 2a 6e bc
       -0.04641321 -0.07153477 -0.037120327 -0.014536455
000090 89 68 c6 bc 60 9b d3 bc 15 00 ce bc 9a ad fb bd
       -0.024219768 -0.025830925 -0.025146523 -0.12288971
0000a0 6d ba d1 3c ba ba 83 bd f6 9c 88 bc 1a ba b8 bd
       0.02560159 -0.064321 -0.016676407 -0.09019871
0000b0 96 d8 d5 3c 48 b6 07 be cc c6 15 3d 14 c5 69 3d
       0.026104253 -0.13253129 0.03656654 0.057072714
0000c0 6f 9e c7 bc cb 3a 8d bd 08 da 9b 3c fa 9b 35 bd
       -0.02436754 -0.068959795 0.019024864 -0.044338204
0000d0 05 33 88 3d 89 67 e5 3c e0 93 a9 3c b8 9d dd bc
       0.06650356 0.028003471 0.020700395 -0.027052745
0000e0 17 a9 63 bc 6f 0a eb 3c d2 f3 30 bd 57 2e 72 3b
       -0.013895295 0.028691499 -0.043201275 0.003695389
0000f0 c8 74 38 3d 2c 99 78 bb 03 b3 41 bd fa 2e f5 3c
       0.045033246 -0.0037933094 -0.04728986 0.029929627
000100 77 ee 7d 3d 5f 55 a3 bc 73 cf 6f 3d c2 82 14 3d
       0.061994996 -0.019938169 0.05854745 0.036257513
000110 d7 30 ba bc 78 77 74 bd cf 87 22 bd cb cb db bd
       -0.022728367 -0.059684247 -0.0396803 -0.1073223
000120 3e f6 4b 3d b2 65 56 3d 63 74 34 bd 8d e4 99 bd
       0.04979538 0.052343078 -0.044056308 -0.07514296
000130 7f 8a 84 3c 6e de e4 bd fb b5 85 bc 0b 8d 31 bc
       0.016179321 -0.111752376 -0.016322127 -0.01083685
000140 2a d7 94 bd 7b 48 0d 3c 4a 34 67 bd 6e 8b e0 bd
       -0.07267602 0.008623238 -0.05644635 -0.10964094
000150 d8 c3 50 3d fa c7 fc 3b 14 59 b6 bb 77 65 95 bd
       0.05096802 0.0077142688 -0.005564818 -0.072947435
000160 95 9d 5e 3c e0 c9 56 bd 2b 17 12 3d 4e 2e 88 3c
       0.013587375 -0.052438617 0.035666626 0.016623642
000170 a3 eb 29 3d 9c ec 2d bd 50 6f 06 be 39 3b 97 bb
       0.041484486 -0.042461976 -0.131284 -0.004615214
000180 1d a4 c2 3c 53 5f 4a 3d e6 85 9d bc d9 30 36 bc
       0.023759896 0.049407315 -0.019228887 -0.011120045
000190 b9 af 97 bd f7 ee 28 3c 07 4b e2 3c 3d c2 4d bd
       -0.07406563 0.01031088 0.027623666 -0.05023407
0001a0 1d 28 a9 bc bc 2c 8a 3c 14 08 56 bd 22 ea a2 bd
       -0.02064901 0.016867034 -0.052253798 -0.079548135
0001b0 18 18 d2 bd d4 70 00 be 76 55 46 bd 93 12 32 bd
       -0.10258502 -0.1254304 -0.048421346 -0.043474745
0001c0 21 e1 87 bd 83 97 2c bb 38 96 1a bd 60 61 d3 bd
       -0.06634737 -0.0026335425 -0.037740916 -0.10321307
0001d0 23 f9 24 bd 0b 36 8b 3d f8 97 f3 bc 2a d5 40 bd
       -0.040276658 0.06797417 -0.02973555 -0.04707829
0001e0 d4 de 67 bc 7d 01 f4 3c 3e ce 0b 3d c1 df c9 3c
       -0.014152247 0.029785866 0.034132235 0.024642827
0001f0 b6 f6 59 bc 8c d6 83 3a 3e f6 7b bd 5d 1f 9a bd
       -0.013303449 0.0010058447 -0.06151413 -0.07525513
000200 d2 09 6f 3d 09 8d 57 bd ef 6e 58 3d ec a3 2e 3c
       0.058358975 -0.052624736 0.05284017 0.010659199
000210 c4 8d 0a bd 87 bd 95 bc 8f 4d 30 3d 29 11 81 bd
       -0.033826604 -0.01827885 0.043042716 -0.06302101
000220 d6 cd 07 3d fb 7f 4d 3d 92 c5 39 3d 2b 37 6c bd
       0.033155285 0.05017088 0.045354433 -0.0576698
000230 9c 9f bd bd ae 2e 18 be f3 15 87 3d af 05 5d 3d
       -0.09258959 -0.14861557 0.06595983 0.0539605
000240 bc 89 b7 bd e2 81 05 3c 26 c4 6c bc c0 bf b2 bd
       -0.089618176 0.008148642 -0.014451062 -0.0872798
000250 9a 40 1f bd 1f 0d 0e bd 9d d4 1b bd 12 6a 0a bd
       -0.03887997 -0.034680482 -0.03804456 -0.033792563
000260 f1 6e 83 bd 49 b7 68 bd 3b 74 18 3d d9 76 16 bd
       -0.06417645 -0.05681542 0.03722022 -0.036734436
000270 c9 d9 7b bc b5 14 23 bc 1c 91 03 bb e0 83 6a bd
       -0.015371748 -0.009953667 -0.0020075506 -0.057254672
000280 cc 56 eb 3b 0f 2e ee 3c 52 b2 58 3b a3 28 3b bd
       0.007181978 0.029074697 0.0033065272 -0.04569305
000290 17 a2 bb bc 56 7c 2c bd ee d3 8f bd a6 90 80 bd
       -0.022904439 -0.042110763 -0.07022844 -0.062775895
0002a0 97 a9 9c 3c b3 cc 80 bd 93 dd 5c bd b7 85 03 bd
       0.019123835 -0.06289043 -0.053922247 -0.032109942
0002b0 4d 9d b6 bd 84 38 60 bd 54 ef 3d bd f4 25 8f bc
       -0.089167215 -0.054741398 -0.04637082 -0.017474152
0002c0 37 c4 61 bc 57 b9 27 bd 61 26 3e bd ff ea dc bc
       -0.013779691 -0.04094824 -0.04642332 -0.026967524
0002d0 10 2c fe 3c 5b 6c 43 3a 93 f3 9f 3c 53 17 ac 3c
       0.03102687 0.0007454806 0.019525325 0.021007216
0002e0 e2 af 19 3d c7 09 a2 bd 65 fd 2c bd 72 19 bd 3b
       0.03752125 -0.07912021 -0.042233843 0.0057708556
0002f0 ca df ac 3c f4 ca f6 bc f8 51 fb 3c bb 9b f6 bc
       0.021102805 -0.030126072 0.030678734 -0.030103555
000300 1f f9 0d bd 61 37 48 3d 0f 05 35 bd 43 d4 88 bd
       -0.03466141 0.04888094 -0.044194277 -0.06681111
000310 75 d6 d1 bd 07 9b 81 bd 0a 4c 0d 3d 64 27 a1 bd
       -0.102459826 -0.06328397 0.034496345 -0.07868841
000320 08 2b 19 3d 97 ae ab 3c 9f 74 9a bd da d2 ae bd
       0.037394553 0.020957274 -0.07541775 -0.085363105
000330 5a 1f b4 bd c8 dc 51 bd 6c 19 2c 3d 02 94 10 3b
       -0.08795042 -0.051235944 0.04201643 0.0022060876
000340 38 3f e8 bc 58 51 39 bd 72 f2 86 bc aa 9e 79 bc
       -0.028350458 -0.04524359 -0.016473029 -0.015235582
000350 b4 73 16 3d 9b 92 60 3d 2c 6c 5b 3d 7b b5 83 b8
       0.036731437 0.054827314 0.053569958 -6.28037e-05
000360 5c d8 51 bc dd 64 6d bd 51 bb f3 3b 6c 67 32 3d
       -0.012807932 -0.05795752 0.0074381013 0.043555662
000370 8c 58 8c bc bf 5b 1e 3d 29 40 a7 bd 6e 10 f3 3b
       -0.017132066 0.038661715 -0.081665345 0.00741773
000380 a7 3c 0d 3d 96 1d 27 bd 73 26 30 3b b8 d6 bb bc
       0.03448167 -0.0407997 0.0026878386 -0.022929534
000390 aa 99 24 bd f8 50 03 bc d7 a0 53 3d 5d 03 f5 bd
       -0.040185608 -0.00801491 0.05166706 -0.11963532
0003a0 82 e6 a5 3c 11 16 a1 3c d6 2c a2 bd 99 77 f2 bd
       0.020251516 0.019663842 -0.07918708 -0.11839218
0003b0 8f da d0 bc 36 6b b3 bd 2d f8 a6 bc ec f7 5d bd
       -0.025494842 -0.08760683 -0.020382011 -0.054191515
0003c0 66 41 91 b9 c3 60 ea bc d6 58 30 3b aa 1c 22 bb
       -0.0002770528 -0.028610593 0.002690842 -0.0024736323
0003d0 4a 06 2a 3d 17 20 5c 3d 82 ff 6c bd fe e9 b9 bc
       0.041509904 0.05374154 -0.05786086 -0.022694584
0003e0 f7 22 44 bd d3 6d 4d bc f2 54 1d bc 46 1f 86 3c
       -0.047884908 -0.012538391 -0.009602772 0.016372334
0003f0 70 0a 26 bd 04 4b 8f bd 0d e8 57 bd 1d 26 13 be
       -0.040537298 -0.0699673 -0.052711535 -0.14370008
